checkpoints/gin_checkpt.pt (torch, 503714 bytes, 78 tensors)

atom_encoder.atom_embedding_list.0.weight f4 [119, 200]
0.10703074 -0.10840311 -0.023926603 0.08329259 0.11120035 0.094166145 -0.12521031 -0.10031611
0.0739915 -0.0134572135 0.0065070535 0.04430919 -0.07965756 -0.067059584 -0.066041745 0.073192395
0.072014466 0.072902344 0.019520229 0.021429935 -0.07036762 -0.022746617 -0.058720157 -0.116233185
0.015944578 -0.032984965 0.102565736 -0.0107780425 -0.10142888 0.07903715 -0.029294427 -0.002190762
-0.07005861 -0.064640366 0.069449835 0.05986944 -0.08181302 -0.025276931 0.119782135 -0.06750379
0.06660247 -0.0026151321 0.06835531 -0.00088369456 -0.017818792 -0.11143517 0.092998795 -0.038576443
0.12550108 -0.12586497 -0.08451906 0.114125654 -0.109368645 -0.12053211 0.039412152 0.046134423
-0.01786246 -0.09991781 0.030500181 0.05575646 -0.0049682884 0.08122987 0.045602083 0.12776649
0.04138838 -0.034435246 -0.13260262 0.023577798 0.13037407 0.07254761 -0.00025980148 0.09843617
-0.11873065 0.13617931 -0.076080345 -0.0028504592 -0.09731877 -0.028825328 -0.0140621085 0.03766698
0.04797919 -0.08504996 -0.092759445 -0.11410466 -0.021867516 -0.094455704 -0.091210924 0.074509665
-0.08113201 -0.11448396 0.13570225 -0.028336575 -0.007938439 -0.10733452 0.08335241 0.13054281
0.054006323 -0.12864666 -0.0053615794 0.038202133 -0.00079720846 0.023808042 -0.075394355 0.008597694
0.09938503 -0.053605918 -0.12788804 0.08943485 0.022582734 0.09592366 0.027941503 -0.046773784
0.036406834 -0.08287476 0.08830462 -0.006430344 0.00082714343 -0.08443127 0.11726923 0.13355854
-0.029041003 0.11015176 -0.015115931 0.11096141 0.007362775 -0.12561223 0.06369623 -0.02043587
0.10480046 0.0288268 0.0439862 0.07590587 0.0894201 -0.07869767 -0.106412 -0.0712226
0.12398742 -0.0039147446 -0.13525498 -0.025704162 0.028722836 0.07606842 -0.0033590104 -0.115909964
-0.114787064 -0.020748446 -0.12058428 0.0725591 0.011534264 -0.089144394 -0.057303123 -0.0664859
-0.08743874 -0.02333567 -0.020947134 0.04088191 0.13707054 -0.06081351 0.02388959 -0.04709571
-0.05305236 0.099225156 -0.031735543 -0.03504768 -0.111528866 -0.018176638 0.09071759 -0.09016568
-0.12992415 -0.012088936 0.036068115 0.09003631 0.09476445 0.08284893 -0.068546444 0.023819681
-0.06351812 -0.0901955 -0.05771502 -0.06526339 0.08754331 -0.01814672 0.06783739 -0.13076223
-0.056708038 -0.07658441 -0.06498536 -0.04988097 -0.05219147 0.06070026 0.027965141 -0.03080978
0.106523626 -0.10059977 -0.12636025 0.042667836 -0.06295189 -0.013849278 -0.100291856 0.05140306
-0.05135895 -0.12848713 -0.041566912 0.06490891 -0.029292727 0.11080868 -0.10076227 0.01810413
-0.06995528 -0.01435178 0.019814495 -0.08098572 0.08372149 -0.12363933 -0.014798794 0.0052131307
-0.005783203 0.12614806 0.0684937 0.07164758 0.0025396163 0.030767389 -0.008618703 -0.0035047452
0.0780458 0.022183329 0.028659778 0.041888777 -0.017330727 -0.09814692 0.09877796 0.07189167
0.04161184 0.034933925 0.13308214 0.10128467 0.093227796 0.122951694 0.09236462 -0.12519294
0.10614523 0.08623558 0.11303425 -0.13136496 -0.004322913 0.011357253 -0.028371708 -0.078052096
0.05246857 -0.11391921 0.10665138 0.118537486 0.059579898 0.101682946 -0.06130406 -0.12895982
00000000: ef32 db3d 7302 debd b901 c4bc 4e95 aa3d
00000010: 02bd e33d 2eda c03d 2237 00be 8872 cdbd
00000020: db88 973d a57b 5cbc 1f39 d53b 8e7d 353d
00000030: 8123 a3bd 8956 89bd e540 87bd e5e5 953d
00000040: 527c 933d d34d 953d e3e8 9f3c d58d af3c
00000050: e61c 90bd 1d57 babc 8c84 70bd aa0b eebd
00000060: 349e 823c 3e1b 07bd fc0d d23d 6396 30bc
00000070: f2b9 cfbd 3bde a13d defa efbc e392 0fbb
00000080: e37a 8fbd 2b62 84bd b73b 8e3d a839 753d
00000090: 968d a7bd 9111 cfbc 5650 f53d 6d3f 8abd
000000a0: e066 883d a362 2bbb defd 8b3d bda7 67ba
000000b0: b7f8 91bc 1f38 e4bd 2776 be3d 5502 1ebd
000000c0: 5b83 003e bfe2 00be 5418 adbd b6ba e93d
000000d0: abfc dfbd 8ad9 f6bd a36e 213d 73f7 3c3d
000000e0: 4b54 92bc b5a1 ccbd 84db f93c e360 643d
000000f0: 06cd a2bb d95b a63d 40c9 3a3d 38d5 023e
00000100: dd86 293d f90b 0dbd fbc8 07be 3a26 c13c
00000110: c880 053e d793 943d f735 88b9 e798 c93d
00000120: 0e29 f3bd 9772 0b3e 03d0 9bbd c5ce 3abb
00000130: 104f c7bd 1823 ecbc c264 66bc b148 1a3d
00000140: d485 443d ac2e aebd aaf8 bdbd b4af e9bd
00000150: 8123 b3bc fe71 c1bd cbcc babd 8698 983d
00000160: 8a28 a6bd 9176 eabd 88f5 0a3e 1b22 e8bc
00000170: 3a10 02bc 33d2 dbbd abb4 aa3d 04ad 053e
00000180: bc35 5d3d f3bb 03be 30b0 afbb d779 1c3d
00000190: c1fb 50ba 1509 c33c 5b68 9abd 58dd 0c3c
000001a0: 618a cb3d e191 5bbd 15f5 02be 9e29 b73d
000001b0: 6dff b83c a073 c43d 94e5 e43c de95 3fbd
000001c0: 551f 153d 3eba a9bd 0dd9 b43d a3b5 d2bb
000001d0: a8d4 583a 4dea acbd da2a f03d 92c3 083e
000001e0: 66e7 edbc 3f97 e13d cfa8 77bc bc3f e33d
000001f0: 6f43 f13b 7ea0 00be 2b73 823d 2069 a7bc
00000200: a0a1 d63d 2e26 ec3c e02a 343d 8974 9b3d
00000210: e321 b73d 3e2c a1bd 89ee d9bd 28dd 91bd
00000220: 1eed fd3d 4247 80bb 4880 0abe 8991 d2bc
00000230: 274c eb3c c3c9 9b3d d822 5cbb 3462 edbd
00000240: 7b15 ebbd a5f8 a9bc e4f4 f6bd de99 943d
00000250: 36fa 3c3c 5691 b6bd aeb6 6abd c229 88bd
00000260: 1513 b3bd 722a bfbc 5399 abbc ca73 273d
00000270: 385c 0c3e 9617 79bd 1ab4 c33c 6ee7 40bd
00000280: 6e4d 59bd 8f36 cb3d 21fd 01bd 288e 0fbd
00000290: 3f69 e4bd 2ce7 94bc 25ca b93d c9a8 b8bd
000002a0: d60a 05be ac10 46bc 29bc 133d f564 b83d
000002b0: dd13 c23d b3ac a93d 1462 8cbd 7e21 c33c
000002c0: ca15 82bd 6bb8 b8bd 9666 6cbd d0a8 85bd
000002d0: e849 b33d 6ea8 94bc 54ee 8a3d 89e6 05be
000002e0: b046 68bd 4ad8 9cbd 0b17 85bd fd4f 4cbd
000002f0: b9c6 55bd d6a0 783d 2717 e53c cb64 fcbc
00000300: 0f29 da3d 4107 cebd 9564 01be 78c4 2e3d
00000310: ecec 80bd 15e8 62bc d165 cdbd 048c 523d
00000320: c35d 52bd 2192 03be 1142 2abd f6ee 843d
00000330: 4df7 efbc a9ef e23d 735c cebd 1d4f 943c
00000340: b744 8fbd ba23 6bbc 0252 a23c d7db a5bd
00000350: 2c76 ab3d 9e36 fdbd a476 72bc e9d2 aa3b
00000360: 0681 bdbb f52c 013e 6d46 8c3d f7bb 923d
00000370: b16f 263b e40b fc3c 7635 0dbc deaf 65bb
00000380: 7ad6 9f3d d0b9 b53c e9c7 ea3c 9193 2b3d
00000390: 2bf9 8dbc 4101 c9bd 194c ca3d f13b 933d
000003a0: 2d71 2a3d e016 0f3d af46 083e 566e cf3d
000003b0: 37ee be3d 19ce fb3d a929 bd3d 9432 00be
000003c0: ac62 d93d 489c b03d 807e e73d 8984 06be
000003d0: 39a7 8dbb c613 3a3c c96b e8bc c7d9 9fbd
000003e0: 49e9 563d 7a4e e9bd 0a6c da3d c8c3 f23d
000003f0: 0d0a 743d 263f d03d f719 7bbd 0b0e 04be

atom_encoder.atom_embedding_list.1.weight f4 [5, 200]
0.07315815 0.09256659 0.1511968 -0.19897833 0.029639639 -0.036412653 0.009168536 0.16484769
-0.04803164 -0.077674635 -0.05662701 -0.01125087 0.05655968 0.1447493 -0.08404713 -0.24148914
-0.105291195 0.032971118 0.12552454 0.05822685 -0.21873377 0.14727093 0.1945577 0.059763886
0.15548185 0.072758235 0.15259461 -0.065312274 -0.2093681 0.08789057 0.0014608939 0.14692916
-0.3210352 -0.01696975 -0.13477136 0.08424955 -0.021580305 0.15450387 -0.26563686 -0.10296705
-0.22864892 0.02881929 0.07962668 -0.112911545 -0.1004461 -0.019788753 -0.32031515 -0.08897288
0.20998415 0.20349416 0.13493796 0.0500618 0.039657667 0.09550911 0.12564074 -0.038407404
-0.09084739 -0.1287878 0.23250489 -0.050116297 0.03192495 -0.1184615 -0.0033205927 -0.15672764
0.08480834 0.2639332 -0.21257165 0.033965267 0.17315742 0.1969041 -0.10207825 -0.13709913
0.05112703 0.25635055 0.10171459 0.052802872 -0.062874 -0.105693705 0.036665756 0.19030257
-0.14509375 0.013880957 0.14321133 -0.1308107 0.08924566 -0.11918778 0.053262442 -0.0008591572
-0.06349993 0.04158986 -0.00876176 -0.05313845 0.11344921 0.14394315 0.10619449 0.08125762
0.03899051 -0.17216295 0.12561637 -0.18851592 -0.03755879 0.12389553 -0.06539768 -0.116742715
-0.122419745 0.1515876 0.030902542 0.029467138 0.21257763 0.123171255 0.1931245 0.23577723
-0.19258744 0.13828081 -0.13837974 0.114345096 -0.028341016 -0.10292627 0.2871165 -0.17522494
-0.0801953 0.043664258 0.2092422 -0.0570285 -0.2760036 -0.054155078 -0.06288021 -0.27184415
0.18949893 -0.14812501 0.15733887 -0.273848 0.17945142 0.17903677 -0.0045514605 -0.15893185
-0.05154918 0.19791572 0.09303094 0.21169542 0.1566532 0.035095867 -0.054402553 -0.11467639
0.10811806 0.15579577 0.2060484 -0.170228 -0.08816313 -0.038953245 0.26182735 0.0065161134
0.009012474 0.12959369 0.25560066 0.17438139 -0.011338748 0.14038843 -0.04690885 0.1410292
0.101502426 -0.028404225 0.100824304 0.04110916 0.077611156 -0.08110345 -0.40652615 -0.3402661
0.18698296 -0.026416088 0.10422073 -0.26473084 0.2542454 0.004983895 0.048424695 -0.1469088
-0.15199488 0.15741402 0.13105851 0.25165117 0.08349183 -0.007825563 0.0852004 0.07931322
-0.083086826 -0.108919725 -0.07611857 0.06547608 -0.07179296 -0.19517963 -0.1301873 -0.21530606
-0.06186213 0.01725063 0.027135218 0.055771805 -0.056138687 0.19467036 -0.103633754 0.020225635
0.11424438 -0.0022961067 0.16518366 0.057185486 0.0024078588 -0.092820935 0.05966866 0.019950567
0.20457476 -0.15181994 0.08461126 -0.037798747 0.07006321 -0.10826543 -0.03515258 -0.08937383
0.14037156 -0.08444051 -0.11990579 -0.14459647 0.06613051 -0.09952951 -0.1832284 -0.06779875
-0.08147692 -0.02090718 0.16032164 -0.051236697 -0.05712334 0.18020658 0.01335535 -0.08315485
0.000121053316 0.09736156 0.046200678 -0.029048549 0.08516717 -0.147635 0.16412763 -0.19144934
-0.060301837 0.08573309 -0.020978674 -0.0908786 -0.12159025 -0.045739714 -0.09294616 -0.026747245
-0.07426797 0.15356229 0.071572006 0.022193572 0.037386157 -0.12942877 -0.10721524 0.02170227
00000000: f1d3 953d 8d93 bd3d 55d3 1a3e fac0 4bbe
00000010: d4ce f23c 6f25 15bd a137 163c d5cd 283e
00000020: d3bc 44bd e113 9fbd b9f1 67bd 9255 38bc
00000030: 1fab 673d 2939 143e e720 acbd ee48 77be
00000040: e9a2 d7bd b90c 073d 8189 003e 477f 6e3d
00000050: bffb 5fbe 31ce 163e 223a 473e faca 743d
00000060: a236 1f3e 4502 953d c341 1c3e 71c2 85bd
00000070: 9764 56be f9ff b33d 777b bf3a 9974 163e
00000080: ba5e a4be 2504 8bbc 8101 0abe 078b ac3d
00000090: 2ec9 b0bc 4336 1e3e 8e01 88be 64e0 d2bd
000000a0: f122 6abe 6f16 ec3c 5013 a33d 2b3e e7bd
000000b0: afb6 cdbd 061c a2bc 5900 a4be 6a37 b6bd
000000c0: 1606 573e c660 503e 2d2d 0a3e 9a0d 4d3d
000000d0: 1470 223d 489a c33d f7a7 003e 1551 1dbd
000000e0: 320e babd f3e0 03be c315 6e3e bf46 4dbd
000000f0: bdc3 023d f19b f2bd 4d9e 59bb 367d 20be
00000100: ffaf ad3d 4122 873e 62ac 59be 2a1f 0b3d
00000110: 2e50 313e 3aa1 493e 670e d1bd b763 0cbe
00000120: 946a 513d 6140 833e bd4f d03d d347 583d
00000130: 15c4 80bd f175 d8bd d52e 163d adde 423e
00000140: 7593 14be f46c 633c fea5 123e 3df3 05be
00000150: 6ec6 b63d b918 f4bd b829 5a3d 1039 61ba
00000160: 400c 82bd 215a 2a3d 7c8d 0fbc b4a7 59bd
00000170: 0f58 e83d d565 133e 7f7c d93d 656a a63d
00000180: 83b4 1f3d 7c4b 30be 94a1 003e 510a 41be
00000190: 3fd7 19bd f1bc fd3d 38ef 85bd ce16 efbd
000001a0: 34b7 fabd c839 1b3e 5427 fd3c 1165 f13c
000001b0: f3ad 593e 3641 fc3d 6ec2 453e 966f 713e
000001c0: a435 45be 7c99 0d3e 6bb3 0dbe c32d ea3d
000001d0: 6b2b e8bc 02cb d2bd ef00 933e 2b6e 33be
000001e0: 6f3d a4bd 4bd9 323d 9643 563e b796 69bd
000001f0: 5850 8dbe b7d1 5dbd 57c7 80bd 282f 8bbe
00000200: 020c 423e 15ae 17be 711d 213e ce35 8cbe
00000210: 1dc2 373e 6a55 373e 6b24 95bb 08bf 22be
00000220: 3c25 53bd 6baa 4a3e 0187 be3d afc6 583e
00000230: b269 203e afc0 0f3d 36d5 5ebd 75db eabd
00000240: 006d dd3d ed88 1f3e 5afe 523e 4050 2ebe
00000250: df8e b4bd 708d 1fbd 3c0e 863e 1f85 d53b
00000260: 0ea9 133c 35b4 043e 17de 823e 0991 323e
00000270: 28c6 39bc fcc1 0f3e 7f23 40bd f569 103e
00000280: 81e0 cf3d faaf e8bc f97c ce3d 1462 283d
00000290: 99f2 9e3d 9119 a6bd 3224 d0be 5c37 aebe
000002a0: 7678 3f3e 8d66 d8bc ae71 d53d cd8a 87be
000002b0: 742c 823e f14f a33b f958 463d 436f 16be
000002c0: 8ca4 1bbe 2431 213e 3434 063e 6cd8 803e
000002d0: c4fd aa3d ca36 00bc 8c7d ae3d f86e a23d
000002e0: 6d29 aabd 4e11 dfbd 0ee4 9bbd 5318 863d
000002f0: 3008 93bd 2bdd 47be d24f 05be 3179 5cbe
00000300: 2563 7dbd 3151 8d3c ad4a de3c fa70 643d
00000310: aef1 65bd ab57 473e ef3d d4bd 3bb0 a53c
00000320: f5f8 e93d 477a 16bb e825 293e 543b 6a3d
00000330: 2bcd 1d3b e718 bebd 2067 743d 5f6f a33c
00000340: 0c7c 513e b076 1bbe ab48 ad3d dcd2 1abd
00000350: 4d7d 8f3d 44ba ddbd 27fc 0fbd a009 b7bd
00000360: 90bd 0f3e 25ef acbd 2b91 f5bd 1911 14be
00000370: 6f6f 873d 21d6 cbbd 3aa0 3bbe 12da 8abd
00000380: 5fdd a6bd 8945 abbc 5b2b 243e 92dd 51bd
00000390: 2afa 69bd 1388 383e 66d0 5a3c 174d aabd
000003a0: 01de fd38 7f65 c73d ec3c 3d3d 39f7 edbc
000003b0: 206c ae3d a12d 17be 1311 283e 4c0b 44be
000003c0: 0fff 76bd d594 af3d 78db abbc 8f1e babd
000003d0: 4f04 f9bd 9159 3bbd 8e5a bebd 0a1d dbbc
000003e0: ce19 98bd 6f3f 1d3e 5894 923d 4bcf b53c
000003f0: 3a22 193d fa88 04be aa93 dbbd f5c8 b13c

atom_encoder.atom_embedding_list.2.weight f4 [12, 200]
-0.08777877 0.062215287 0.117755 0.117486894 -0.14347062 -0.12806617 -0.15795517 -0.15533216
-0.06602541 -0.058128305 -0.021482194 0.15090704 0.13855809 -0.0536595 0.15928267 -0.0692872
0.0009165233 -0.007030743 -0.052750517 0.13909343 0.014444332 -0.033844538 -0.09083698 0.053913977
-0.07764138 0.15343815 -0.018486552 0.14469033 0.09779372 -0.11561777 -0.060642794 0.029917132
0.13814431 0.122253954 0.061343607 -0.036280833 -0.00010380352 0.15012483 0.09794993 -0.07307962
0.042302262 0.004438222 0.16339801 0.053972635 -0.07508887 -0.14191686 0.16478692 0.14204432
0.12359638 0.10939495 0.0353243 0.14002645 0.02579016 0.015104174 -0.13723968 0.14798056
0.0020311277 0.16385755 0.05670245 -0.06924617 -0.119398795 0.040839486 -0.10382401 0.14589216
-0.07893898 -0.14407559 -0.049367618 -0.14847192 0.12628698 -0.13845998 -0.08034854 -0.07992907
-0.021234477 -0.15652455 0.049447615 -0.026092347 0.13249442 -0.16120514 0.12674887 0.10156645
0.03934456 0.07874223 -0.12376562 0.15288621 0.15515196 0.0015133534 -0.1035679 0.12273137
0.1597345 0.018680762 0.07794411 -0.09076669 0.13951229 -0.12988484 -0.11435372 -0.049531825
0.15834391 0.1596713 -0.06714588 0.075679906 0.0024275905 0.0048161144 -0.063393325 0.012607174
-0.09579132 -0.07785689 -0.09420558 0.009660064 0.035567004 -0.069456026 -0.06309316 -0.025283618
0.10598654 0.10520835 -0.07820141 0.12996493 0.10580041 0.13711035 -0.04106769 0.10269754
-0.014854893 -0.040247366 -0.15272975 0.108612694 0.013262043 -0.07786413 0.12376901 -0.05719163
-0.0718856 0.06423819 -0.12181501 -0.13137671 0.07442405 0.14389314 -0.116258174 -0.007290292
-0.029962737 -0.128973 -0.09215338 -0.1117122 -0.011284321 0.010700447 -0.061625257 0.08573854
0.07503252 -0.021671671 -0.16472042 -0.11272944 -0.003874322 -0.05031384 0.03138845 -0.14859161
0.008805471 0.04578074 -0.03843979 -0.05886257 0.022144644 0.013798287 0.003477839 0.14442751
-0.095076 0.1478113 -0.13173166 0.07996818 -0.09680559 0.0074498076 0.1487953 -0.1480213
-0.0475015 -0.12282108 -0.030815246 0.16678745 0.018789299 0.16243991 0.032700494 -0.12381026
-0.048587646 0.033448055 -0.15606368 0.14611302 0.05138946 0.030853169 -0.12910843 0.16240934
0.07242401 -0.0037318328 0.037656672 -0.058597166 -0.0909089 0.014479628 0.12346799 -0.049322795
0.0049512433 -0.036238417 -0.044459652 0.0762117 -0.08763229 0.005278116 -0.036280733 0.16634943
0.01741583 -0.029992925 -0.08067889 -0.29338363 0.102675036 -0.34328824 0.24335873 0.36906362
-0.15730983 -0.14937192 -0.061327457 0.08769244 -0.075268686 -0.1112465 0.3240577 -0.057030726
0.101398654 -0.0994013 0.044891786 0.17354012 -0.06352035 0.19404286 -0.10348181 0.2792727
0.16619018 0.15255196 0.087305695 -0.105079785 0.08936064 -0.048926566 -0.024688989 -0.006274982
-0.11778691 -0.20828259 0.051194906 0.11518504 -0.038497206 0.14999701 -0.24640875 0.009911453
0.11795874 -0.07326243 0.002452146 0.37036818 0.09888182 -0.042332742 0.16111688 0.2377763
0.32096875 0.1758506 0.034476694 0.50579095 0.10470244 0.36798346 0.012177902 0.08749423
00000000: 5bc5 b3bd 75d5 7e3d 8929 f13d f89c f03d
00000010: f6e9 12be c723 03be 00bf 21be 650f 1fbe
00000020: 5538 87bd f217 6ebd 6dfb afbc 6087 1a3e
00000030: 2ce2 0d3e 10ca 5bbd ff1a 233e 73e6 8dbd
00000040: d642 703a 2662 e6bb ed10 58bd 826e 0e3e
00000050: eba7 6c3c 92a0 0abd bd08 babd e7d4 5c3d
00000060: 7202 9fbd e41e 1d3e 1c71 97bc b429 143e
00000070: 1348 c83d 02c9 ecbd 9464 78bd c614 f53c
00000080: b475 0d3e 4860 fa3d 6f43 7b3d 369b 14bd
00000090: 17b1 d9b8 53ba 193e f999 c83d c5aa 95bd
000000a0: 2345 2d3d 816e 913b cf51 273e 6912 5d3d
000000b0: 32c8 99bd a752 11be e7bd 283e 1174 113e
000000c0: 1920 fd3d 760a e03d 37b0 103d 1863 0f3e
000000d0: e345 d33c 7f77 773c 8f88 0cbe 3788 173e
000000e0: ab1c 053b 46ca 273e d440 683d f0d0 8dbd
000000f0: 5b87 f4bd 4e47 273d afa1 d4bd c164 153e
00000100: c3aa a1bd 8d88 13be b335 4abd 0609 18be
00000110: 6051 013e 74c8 0dbe c68d a4bd dab1 a3bd
00000120: edf3 adbc f947 20be 9589 4a3d 9ebf d5bc
00000130: 9eac 073e f612 25be 75ca 013e 1202 d03d
00000140: c327 213d 9b43 a13d d478 fdbd 348e 1c3e
00000150: 28e0 1e3e b75b c63a 681b d4bd 965a fb3d
00000160: 7191 233e 6608 993c 29a1 9f3d e3e3 b9bd
00000170: 4fdc 0e3e 8800 05be 4832 eabd e2e1 4abd
00000180: e824 223e e080 233e c783 89bd 11fe 9a3d
00000190: 3618 1f3b 7fd0 9d3b 5cd4 81bd 528e 4e3c
000001a0: 3d2e c4bd 6f73 9fbd dbee c0bd 3f45 1e3c
000001b0: b5ae 113d f63e 8ebd fd36 81bd 971f cfbc
000001c0: 790f d93d 7a77 d73d 1028 a0bd 8715 053e
000001d0: e3ad d83d a866 0c3e 9836 28bd 1653 d23d
000001e0: f061 73bc 6cda 24bd 3065 1cbe 5570 de3d
000001f0: 0a49 593c 3b77 9fbd 9b7a fd3d c541 6abd
00000200: c238 93bd 508f 833d 267a f9bd 9e87 06be
00000210: a36b 983d b958 133e c418 eebd 67e3 eebb
00000220: 6a74 f5bc 8011 04be e9ba bcbd 5ec9 e4bd
00000230: dfe1 38bc ed50 2f3c c46a 7cbd b097 af3d
00000240: a6aa 993d ca88 b1bc 78ac 28be b1de e6bd
00000250: 56e8 7dbb e315 4ebd 2d91 003d 6628 18be
00000260: d244 103c 9684 3b3d 0b73 1dbd e119 71bd
00000270: af68 b53c 3612 623c 75ec 633b cee4 133e
00000280: 35b7 c2bd d85b 173e aae4 06be 5bc6 a33d
00000290: 0242 c6bd 841d f43b cc5d 183e e592 17be
000002a0: ef90 42bd 9e89 fbbd 4170 fcbc 54ca 2a3e
000002b0: 04ec 993c a656 263e f4f0 053d 3c90 fdbd
000002c0: d703 47bd d400 093d 28cf 1fbe a79e 153e
000002d0: c17d 523d c9bf fc3c 0035 04be a24e 263e
000002e0: 0a53 943d c491 74bb e23d 1a3d 9503 70bd
000002f0: 722e babd f63b 6d3c c9dc fc3d b306 4abd
00000300: 0a3e a23b bc6e 14bd 531b 36bd e114 9c3d
00000310: 8f78 b3bd 0cf4 ac3b 1b9b 14bd 8157 2a3e
00000320: a5ab 8e3c b9b3 f5bc f93a a5bd 6136 96be
00000330: 4a47 d23d 7ac3 afbe 0833 793e e8f5 bc3e
00000340: d415 21be f4f4 18be 8032 7bbd 1898 b33d
00000350: 7826 9abd 34d5 e3bd e4ea a53e 0d99 69bd
00000360: 19aa cf3d e992 cbbd 73e0 373d 80b4 313e
00000370: f516 82bd 2cb3 463e 45ee d3bd d5fc 8e3e
00000380: c22d 2a3e 9536 1c3e 54cd b23d 1234 d7bd
00000390: b602 b73d 3967 48bd 9040 cabc 5d9e cdbb
000003a0: 433a f1bd 0848 55be c0b1 513d 22e6 eb3d
000003b0: 3faf 1dbd d198 193e 9352 7cbe a663 223c
000003c0: 5a94 f13d 9d0a 96bd 2fb4 203b e6a0 bd3e
000003d0: 8d82 ca3d 1965 2dbd d3fb 243e a17b 733e
000003e0: 0456 a43e 2e12 343e 6f37 0d3d 847b 013f
000003f0: 3c6e d63d 5468 bc3e d385 473c 2d30 b33d

atom_encoder.atom_embedding_list.3.weight f4 [12, 200]
-0.10653901 0.10794776 -0.0835055 -0.032828625 -0.09565398 0.105940014 0.06596565 -0.052278128
0.14581503 -0.079777576 0.0003585794 -0.13298537 -0.13858221 0.15925711 0.031586673 -0.11583364
-0.13046235 0.13920386 0.116211005 0.06469879 -0.0906381 -0.10261659 -0.038238823 0.09574886
-0.15263991 -0.10234211 0.1521076 0.13059853 -0.028706225 -0.16587508 -0.053319152 0.1417222
0.1618818 0.11889058 0.116844095 0.15711614 -0.14440006 0.11379976 -0.015957385 -0.0120522585
0.05820327 0.09190508 -0.06712666 -0.12741156 0.04942652 0.0071034217 -0.11996614 -0.08029916
-0.029193917 0.012383002 0.103827864 0.014864199 -0.111518994 0.15941668 -0.07414507 -0.116194725
0.012027331 -0.025161063 0.06899651 -0.07273524 0.04527568 0.13413338 0.15962751 -0.109345734
0.0110601485 -0.13224164 0.12991361 -0.16385596 -0.023067525 0.014829503 -0.08253924 -0.053090025
-0.048118725 -0.12508537 -0.019984744 0.028030118 -0.09424964 -0.07596532 -0.000355872 0.1408269
-0.06611482 -0.16590394 0.13401459 -0.13741519 0.087129675 -0.11152778 0.016539996 -0.022632336
-0.16647157 0.08257987 0.026341066 0.020955555 0.07341023 0.009894846 -0.13851716 -0.1287083
0.057497524 0.008262548 0.11583119 -0.09441618 0.16367452 0.10254412 0.13945514 0.1588092
-0.0121714035 0.12974118 0.07399558 0.09930193 0.06993712 0.12073075 -0.050378237 -0.1042155
0.021987515 -0.028064452 0.06792779 -0.1633272 -0.012322316 -0.017898828 0.08397007 -0.14705774
0.08043118 0.13757485 0.10014599 0.13082278 -0.09518713 0.10324726 -0.01960966 -0.12325168
0.16812003 0.08755157 -0.08111633 -0.07551836 0.025985174 0.11846322 -0.010941605 -0.11443377
-0.07688718 -0.023256741 0.0033779663 -0.16744362 -0.07396484 0.017906528 -0.15227732 0.0013332214
0.16284703 -0.14986283 -0.16234471 0.06604166 0.10355548 -0.048554797 -0.13673049 0.13640444
-0.08953918 -0.13957007 0.117349036 -0.12460218 -0.13576728 0.05998201 0.047023516 0.12527695
-0.16375868 -0.05908835 -0.049382016 -0.09166931 -0.09225728 0.053928014 0.05026168 0.15969008
0.034452662 0.097110756 -0.05300012 -0.036352508 -0.029625416 -0.08069548 0.11296568 0.07228684
-0.07374113 0.1369451 0.07276777 -0.1362516 -0.007668625 -0.004806869 0.16611336 0.06508619
-0.093824565 0.15673853 -0.0070796967 -0.13825014 0.09549092 -0.061531883 -0.099071234 0.07054452
-0.13004252 -0.1379514 -0.01959873 0.11043591 0.011251772 0.03549651 -0.006618337 0.031181365
0.089045994 0.15852764 -0.14530048 0.031594936 -0.123603255 0.08948126 0.047915272 0.027206108
0.0708687 -0.07791822 -0.08950494 0.16592501 -0.15932041 -0.12303489 -0.16555059 -0.0622191
0.015211748 -0.13831368 0.12448569 0.16219987 -0.087586164 -0.122217655 0.15976739 -0.08914835
-0.14969043 -0.13149944 -0.050870743 0.015476992 -0.112977594 0.0806136 -0.08076748 -0.13575591
-0.08356069 -0.020573834 0.1677108 0.041063737 -0.07991445 0.07347007 -0.09403209 -0.12992173
-0.11354589 0.15664876 -0.0052538095 0.019574182 0.056615595 0.01245173 -0.020218262 0.027321624
-0.079588704 0.0750346 0.013902332 -0.14912374 0.14084218 0.089825705 0.038203105 -0.01639899
00000000: 2031 dabd b713 dd3d ee04 abbd 4f77 06bd
00000010: 3ce6 c3bd 14f7 d83d 0019 873d 9721 56bd
00000020: 8950 153e 6d62 a3bd b6ff bb39 512d 08be
00000030: 7fe8 0dbe 4c14 233e 0761 013d 303a edbd
00000040: ec97 05be 758b 0e3e 0900 ee3d cd80 843d
00000050: 78a0 b9bd a628 d2bd 50a0 1cbd fa17 c43d
00000060: a34d 1cbe bd98 d1bd 18c2 1b3e 9fbb 053e
00000070: 5129 ebbc 28db 29be 2f65 5abd a01f 113e
00000080: 58c4 253e e87c f33d f54b ef3d 0ee3 203e
00000090: 9cdd 13be d90f e93d 10b9 82bc d676 45bc
000000a0: 8d66 6e3d bb38 bc3d b479 89bd 2d78 02be
000000b0: 7673 4a3d d2c3 e83b cfb0 f5bd e373 a4bd
000000c0: 1528 efbc 13e2 4a3c b4a3 d43d f888 733c
000000d0: 1264 e4bd 203e 233e 5fd9 97bd 80f7 edbd
000000e0: 480e 453c 931e cebc 0b4e 8d3d 37f6 94bd
000000f0: fe72 393d 435a 093e 6575 233e a8f0 dfbd
00000100: a035 353c 5a6a 07be 1308 053e dbc9 27be
00000110: 1bf8 bcbc 72f7 723c 550a a9bd ed74 59bd
00000120: 2418 45bd 6116 00be 0cb7 a3bc 6b9f e53c
00000130: f505 c1bd b593 9bbd 5594 bab9 ed34 103e
00000140: 3567 87bd b9e2 29be 1f3b 093e 91b6 0cbe
00000150: 0b71 b23d ad68 e4bd e37e 873c 7367 b9bc
00000160: 8677 2abe a31f a93d 38c9 d73c fcaa ab3c
00000170: 1a58 963d fe1d 223c 71d7 0dbe 1ccc 03be
00000180: 8682 6b3d a35f 073c e738 ed3d 455d c1bd
00000190: 4b9a 273e a702 d23d 54cd 0e3e e19e 223e
000001a0: 916a 47bc dfda 043e ff8a 973d cf5e cb3d
000001b0: 313b 8f3d af41 f73d 6959 4ebd f06e d5bd
000001c0: 291f b43c 6ce7 e5bc ba1d 8b3d 3f3f 27be
000001d0: 8ae3 49bc 90a0 92bc 80f8 ab3d 4e96 16be
000001e0: 1ab9 a43d 6ce0 0c3e 5719 cd3d 68f6 053e
000001f0: 78f1 c2bd 4d73 d33d 70a4 a0bc 606b fcbd
00000200: a827 2c3e 3d4e b33d 5220 a6bd 5fa9 9abd
00000210: dcde d43c d89c f23d 6b44 33bc 415c eabd
00000220: 0777 9dbd ec84 bebc df60 5d3b 5776 2bbe
00000230: e17a 97bd b6b0 923c 96ee 1bbe 7dbf ae3a
00000240: 5fc1 263e a475 19be b13d 26be da40 873d
00000250: e514 d43d 65e1 46bd 1403 0cbe 9bad 0b3e
00000260: 5160 b7bd 75eb 0ebe b154 f03d 6e2f ffbd
00000270: 9406 0bbe b2af 753d bb9b 403d 9a48 003e
00000280: 5bb0 27be a006 72bd cc44 4abd 1fbd bbbd
00000290: 63f1 bcbd 9fe3 5c3d 31df 4d3d cc85 233e
000002a0: 3c1e 0d3d 01e2 c63d a716 59bd 5ee6 14bd
000002b0: 00b1 f2bc ac43 a5bd 8d5a e73d 1f0b 943d
000002c0: 9705 97bd 563b 0c3e 4507 953d 8a85 0bbe
000002d0: 1749 fbbb f182 9dbb 9f19 2a3e e94b 853d
000002e0: 1827 c0bd 1180 203e cdfc e7bb 7291 0dbe
000002f0: be90 c33d db08 7cbd dce5 cabd a579 903d
00000300: de29 05be 2243 0dbe 848d a0bc 392c e23d
00000310: 5a59 383c ca64 113d a2de d8bb 1070 ff3c
00000320: bf5d b63d 1255 223e a6c9 14be b169 013d
00000330: b423 fdbd f341 b73d ce42 443d 58df de3c
00000340: 9c23 913d 9693 9fbd 5e4e b7bd 3fe8 293e
00000350: e424 23be b7f9 fbbd 1886 29be 74d9 7ebd
00000360: b23a 793c 1aa2 0dbe 5af2 fe3d b917 263e
00000370: 6060 b3bd 404d fabd 109a 233e 6993 b6bd
00000380: 7348 19be caa7 06be d75d 50bd 3693 7d3c
00000390: cc60 e7bd be18 a53d 6c69 a5bd 9903 0bbe
000003a0: de21 abbd 758a a8bc 61bc 2b3e 7332 283d
000003b0: 30aa a3bd 7a77 963d e593 c0bd 340a 05be
000003c0: bf8a e8bd 8868 203e 2628 acbb 095a a03c
000003d0: c1e5 673d 5702 4c3c c5a0 a5bc 99d1 df3c
000003e0: 67ff a2bd beab 993d 9bc6 633c e5b3 18be
000003f0: ef38 103e 8af6 b73d dc7a 1c3d 2d57 86bc

atom_encoder.atom_embedding_list.4.weight f4 [10, 200]
-0.18226816 0.14826167 0.046776433 -0.03605556 0.17265779 0.13484564 0.18070458 -0.0011753885
0.18187779 0.076143846 -0.15805465 -0.02237705 -0.04434079 0.07210024 0.34884664 -0.2598782
0.20418082 0.07387767 0.45173654 0.017639931 0.095164776 0.16382827 0.09500466 0.059603553
0.17232648 -0.28064817 0.12185276 0.06988022 -0.05774606 0.21230975 0.16801105 -0.017108925
-0.15681168 0.00322825 0.17241117 0.19984351 -0.10639653 -0.030464064 -0.29334182 0.1664941
-0.17524458 0.08058441 -0.32065266 -0.0050042477 -0.03897294 0.075659305 -0.22705255 -0.02457007
0.21802177 0.15224946 -0.026632138 0.32238525 -0.17772038 0.23366767 0.03110816 -0.20710826
0.098268405 0.23188773 0.2106424 0.18040302 0.15800898 0.072579995 -0.13055645 0.078503475
-0.06579551 0.40524417 -0.26668462 0.1375418 -0.05494359 0.32464933 -0.1314114 -0.3151556
0.06927774 0.23168314 -0.14681204 0.17342833 0.05101875 -0.13349973 0.118618056 0.40951866
-0.0017597439 0.04388764 0.27104127 -0.025905821 0.34804434 0.009867208 0.074410856 0.09372173
-0.23188752 -0.15278922 0.23766546 0.27780217 -0.01975146 0.3744344 -0.14733045 0.06862151
0.058413465 0.021880606 0.4147649 0.07356661 0.26006413 0.20620102 0.04688738 0.09664403
-0.13536377 0.04836674 0.18500046 0.16859464 0.11151623 0.18103449 0.0478149 0.16201259
-0.17207573 -0.01864615 0.21633658 0.12348063 -0.25253752 -0.0007134635 0.22651874 -0.118288025
-0.078454636 -0.09614349 0.089475796 -0.29471305 0.020771591 -0.25204623 -0.007304556 -0.22734007
0.03942184 0.08691051 0.32136482 -0.14418869 0.17546195 0.07615469 0.11307086 0.17811216
0.27384505 -0.043443322 0.3397994 0.038971864 0.14730628 0.081711225 0.20357168 -0.1569518
-0.095415615 -0.01564306 0.20719029 -0.34021744 -0.011614877 0.0102927415 0.2106192 -0.029152976
0.19583309 0.28032914 0.000317382 0.08194421 -0.025104111 0.15935184 -0.17423877 -0.023945576
0.485862 0.06164723 0.23687701 -0.06429352 0.39115795 -0.2603095 -0.25977004 -0.32062885
0.059813652 0.14965288 -0.15868537 -0.027065406 -0.052615423 -0.045026887 0.10521213 0.047580607
0.20417632 -0.042654935 0.013102055 0.2415016 -0.085618146 -0.009340741 0.08432461 -0.18060215
0.4939713 0.20488782 0.095897645 0.16368887 0.08638064 -0.048171706 0.108897515 -0.13185863
-0.21578583 -0.0024205875 0.13903064 0.2331643 0.025880774 0.20750505 0.053701453 -0.037880965
-0.131426 0.14165433 -0.31323966 -0.18996039 0.19460426 -0.0683921 -0.0710919 0.20316134
-0.24221021 -0.13388875 0.28639892 0.3668834 -0.07981343 -0.1468233 0.015693774 -0.4293291
0.305321 -0.30283138 0.13704087 0.17392422 -0.10798552 0.021311874 -0.038160555 0.19361854
-0.13546875 0.20417364 0.04047027 -0.32589558 0.26802891 -0.16644488 0.030883461 -0.27704617
-0.11388434 -0.18518385 -0.0036551629 0.01867962 0.21967928 -0.23252955 -0.32208997 -0.029109998
-0.19395633 -0.20007905 0.0944299 0.23049244 -0.077961504 -0.11087505 -0.14264105 0.030223314
0.19913916 0.12114148 0.034770235 0.20401773 -0.07422089 0.47743654 -0.011562121 0.16845779
00000000: 81a4 3abe e8d1 173e a598 3f3d ffae 13bd
00000010: 34cd 303e fa14 0a3e 9f0a 393e 7e0f 9aba
00000020: 2c3e 3a3e 4ef1 9b3d 14d9 21be 1350 b7bc
00000030: b09e 35bd 4aa9 933d 079c b23e c10e 85be
00000040: c714 513e 2d4d 973d 034a e73e 9e81 903c
00000050: c0e5 c23d 99c2 273e ce91 c23d db22 743d
00000060: 5a76 303e 1eb1 8fbe f18d f93d 5c1d 8f3d
00000070: 2287 6cbd ba67 593e 170b 2c3e 0428 8cbc
00000080: 3e93 20be 0c91 533b 8e8c 303e c7a3 4c3e
00000090: 6de6 d9bd c68f f9bc e630 96be 6e7d 2a3e
000000a0: 5173 33be 7009 a53d 962c a4be acfa a3bb
000000b0: 17a2 1fbd 44f3 9a3d 7780 68be 2c47 c9bc
000000c0: 1941 5f3e 48e7 1b3e a42b dabc ae0f a53e
000000d0: 55fc 35be 9446 6f3e 8ad6 fe3c 3014 54be
000000e0: f240 c93d fa73 6d3e a4b2 573e 92bb 383e
000000f0: 1bcd 213e d2a4 943d 97b0 05be 6ec6 a03d
00000100: ccbf 86bd 2a7c cf3e e38a 88be c2d7 0c3e
00000110: 880c 61bd 7038 a63e b690 06be 135c a1be
00000120: 7de1 8d3d 583e 6d3e e555 16be 3297 313e
00000130: 09f9 503d 27b4 08be 06ee f23d 6eac d13e
00000140: 35a7 e6ba 87c3 333d ecc5 8a3e 7238 d4bc
00000150: de32 b23e 12aa 213c b864 983d 2ef1 bf3d
00000160: ec73 6dbe c774 1cbe 935e 733e 163c 8e3e
00000170: d0cd a1bc deb5 bf3e cbdd 16be 6f89 8c3d
00000180: f542 6f3d f53e b33c 115c d43e 17aa 963d
00000190: 2027 853e 5c26 533e fb0c 403d 4eed c53d
000001a0: cd9c 0abe 341c 463d c370 3d3e 13a4 2c3e
000001b0: 9f62 e43d 1b61 393e 8ed9 433d a1e6 253e
000001c0: 9f34 30be d0bf 98bc 5687 5d3e 6ae3 fc3d
000001d0: 994c 81be ba07 3bba 87f4 673e fe40 f2bd
000001e0: d3ac a0bd e1e6 c4bd 163f b73d a1e4 96be
000001f0: 2f29 aa3c 340c 81be 0f5b efbb d6cb 68be
00000200: cc78 213d 23fe b13d ee89 a43e 33a6 13be
00000210: 4cac 333e fdf6 9b3d b291 e73d 0963 363e
00000220: 6b35 8c3e a0f1 31bd 30fa ad3e f6a0 1f3d
00000230: 75d7 163e 3758 a73d 1875 503e f9b7 20be
00000240: 4369 c3bd e025 80bc b129 543e fb30 aebe
00000250: 534c 3ebc e3a2 283c 8fac 573e 39d2 eebc
00000260: 7888 483e 4d87 8f3e 4a66 a639 5ed2 a73d
00000270: 23a7 cdbc 212d 233e a66b 32be 8329 c4bc
00000280: e7c2 f83e ce81 7c3d e38f 723e 52ac 83bd
00000290: db45 c83e 4947 85be 9400 85be 7729 a4be
000002a0: 29ff 743d 9b3e 193e 6b7e 22be 45b8 ddbc
000002b0: 4583 57bd 1d6e 38bd 7579 d73d e2e3 423d
000002c0: 9913 513e f1b6 2ebd 00aa 563c 324c 773e
000002d0: 9158 afbd e809 19bc 62b2 ac3d c5ef 38be
000002e0: cee9 fc3e 1dce 513e fc65 c43d 0e9e 273e
000002f0: 55e8 b03d b24f 45bd a905 df3d f305 07be
00000300: f6f6 5cbe b8a2 1ebb 0c5e 0e3e 9fc2 6e3e
00000310: eb03 d43c 347c 543e 0ef6 5b3d 1229 1bbd
00000320: 8a94 06be d50d 113e f360 a0be fa84 42be
00000330: 5746 473e 2811 8cbd a198 91bd 8709 503e
00000340: f405 78be 221a 09be e1a2 923e 24d8 bb3e
00000350: 3975 a3bd d958 16be 3b90 803c 06d1 dbbe
00000360: 0953 9c3e b70c 9bbe 7154 0c3e 3119 323e
00000370: 8327 ddbd 3d96 ae3c 3e4e 1cbd f043 463e
00000380: 52b8 0abe e512 513e 27c4 253d c9db a6be
00000390: 163b 893e 8770 2abe 50ff fc3c ffd8 8dbe
000003a0: 313c e9bd d6a0 3dbe 758b 6fbb 0106 993c
000003b0: 9bf3 603e 3a1c 6ebe fae8 a4be 1778 eebc
000003c0: 7d9c 46be 86e1 4cbe 7764 c13d 3606 6c3e
000003d0: 48aa 9fbd 7512 e3bd 7f10 12be e296 f73c
000003e0: 23eb 4b3e 0619 f83d 3c6b 0e3d 06ea 503e
000003f0: 1f01 98bd 9072 f43e 0d6f 3dbc 3380 2c3e

atom_encoder.atom_embedding_list.5.weight f4 [6, 200]
-0.164508 -0.12035734 0.01566064 0.056232486 -0.015590217 -0.047428656 0.078582525 0.041463092
0.14870848 -0.25750175 0.053530052 -0.05192029 -0.07139484 0.18912588 -0.0056793597 -0.31136543
0.1108706 0.03302682 0.14812844 0.12498016 0.10873627 0.023450557 -0.054961707 0.15715685
0.13259055 0.07208638 -0.17980169 -0.083035775 -0.045676026 0.13937047 0.15444443 -0.08535916
-0.0040320596 0.056843184 -0.17863505 0.08140799 -0.11247914 0.02802139 0.107849136 -0.096888065
0.04719859 -0.0075693754 0.14750908 -0.1585689 -0.06683822 -0.16112621 0.07840483 -0.17936474
0.013581567 0.14983764 -0.20612499 0.18021728 0.068187326 0.18526581 -0.19391023 -0.13655919
0.08644332 0.087062135 -0.06891179 0.17468622 0.36166897 -0.14615804 0.14320655 -0.023189425
-0.020641256 0.17626344 0.29486668 -0.034706112 0.19166969 0.14667775 0.17056446 -0.030210735
-0.15618463 -0.112735495 0.07812402 0.14931041 -0.0077698785 -0.18702933 0.0767822 -0.14164516
0.30592418 0.049981583 0.2978637 -0.24273819 0.19219342 -0.025347227 -0.19779767 0.018304426
0.051972788 0.20669857 0.016630124 -0.16654263 0.110349186 0.11120893 0.09041895 -0.08374684
0.20284572 0.22881119 -0.08799728 -0.2334071 0.18383655 -0.016639432 0.176685 0.10260845
0.0012579282 0.13487223 -0.21620975 -0.04591204 -0.023244048 0.15064709 0.098562084 -0.14223287
-0.084382206 -0.20388167 0.02702876 -0.062258735 0.002451122 -0.11386272 0.21521373 0.015470119
-0.17075312 -0.17300713 -0.013772793 0.063858666 0.0052304203 0.12594496 0.09878608 -0.25750354
-0.09746468 -0.15946288 0.11018882 0.0026788192 -0.221511 0.10540852 0.28719813 0.09334466
-0.08533191 -0.08041001 -0.20902248 -0.04329024 0.08966412 0.051943187 0.10505123 0.21226937
-0.14362329 -0.019083222 -0.20191008 0.14851116 -0.06656482 0.01811273 0.034598507 0.053450607
0.24612144 0.21226168 0.14262068 -0.05528604 0.2103167 0.07308255 -0.030502569 0.10940495
0.19867565 0.010353233 0.07724068 -0.00033338653 0.005543501 -0.1362048 0.078631796 0.011300235
-0.12142131 0.054609437 0.0074663055 0.16837667 0.13627894 0.1365213 -0.0012793663 0.009417321
0.25032318 0.060183194 -0.12766916 0.13336726 -0.046335895 -0.0038694583 0.1690364 0.04284532
-0.06043333 0.074697316 -0.07528432 0.11299393 0.01079575 0.108745955 0.09504596 -0.17795363
0.00697237 -0.24150331 -0.021597803 -0.12341749 0.11110314 0.08990411 0.05797624 0.15042613
0.10653439 -0.041677732 0.025974933 0.040876918 -0.046512805 0.20258585 0.048632007 0.0070007173
-0.076247215 0.119043335 -0.15091594 0.057792135 0.011886505 0.18198374 0.02348676 -0.0695788
-0.046416678 -0.108050495 -0.03360979 -0.10286911 -0.016840363 -0.080925286 0.0018665801 -0.01388269
-0.07938112 -0.0856053 0.20876968 0.02794895 -0.20350519 -0.03713068 0.20709547 0.06116817
-0.17234436 -0.04176792 -0.06109443 -0.0958417 0.14917809 0.17772461 -0.21669704 -0.070110396
-0.063376166 -0.044378 0.0069675446 0.21953565 -0.07063952 -0.09939209 -0.060211264 -0.051795427
-0.07425381 0.14163375 0.20501935 0.078132994 -0.0706424 0.08832267 0.102742836 -0.046990175
00000000: c974 28be e97d f6bd be4a 803c 0954 663d
00000010: 1c6e 7fbc 8d44 42bd e0ef a03d 34d5 293d
00000020: 0947 183e 45d7 83be 5442 5b3d 5faa 54bd
00000030: 7537 92bd 37aa 413e ec19 babb 4a6b 9fbe
00000040: 2010 e33d 2147 073d fbae 173e 99f5 ff3d
00000050: 1fb1 de3d 621b c03c 871f 61bd baed 203e
00000060: d1c5 073e 06a2 933d ef1d 38be a90e aabd
00000070: c916 3bbd 22b7 0e3e ae26 1e3e c9d0 aebd
00000080: 5e1f 84bb 66d4 683d 1bec 36be 3bb9 a63d
00000090: 775b e6bd 1d8d e53c 02e0 dc3d 406d c6bd
000000a0: 4f53 413d 8608 f8bb 9f0c 173e e35f 22be
000000b0: 7ae2 88bd 45fe 24be b692 a03d 64ab 37be
000000c0: 3985 5e3c 0a6f 193e 6e12 53be e18a 383e
000000d0: cca5 8b3d 52b6 3d3e 6790 46be 2cd6 0bbe
000000e0: 3209 b13d a24d b23d a021 8dbd f2e0 323e
000000f0: ad2c b93e 74aa 15be bda4 123e c0f7 bdbc
00000100: da17 a9bc 677e 343e c4f8 963e ff27 0ebd
00000110: 0f45 443e b132 163e 73a8 2e3e 817c f7bc
00000120: ddee 1fbe dee1 e6bd 7cff 9f3d d4e4 183e
00000130: 779a febb 9e84 3fbe fc3f 9d3d 6e0b 11be
00000140: 18a2 9c3e 7db9 4c3d 9781 983e 5c90 78be
00000150: 5ace 443e fda4 cfbc 798b 4abe 2af3 953c
00000160: 6be1 543d caa8 533e e63b 883c 278a 2abe
00000170: c1fe e13d 82c1 e33d 922d b93d 7783 abbd
00000180: cab6 4f3e 7b4d 6a3e eb37 b4bd 4502 6fbe
00000190: a63f 3c3e 6b4f 88bc eaec 343e 6124 d23d
000001a0: 11e1 a43a f21b 0a3e 1766 5dbe 430e 3cbd
000001b0: 4d6a bebc 3b43 1a3e ebda c93d 7ea5 11be
000001c0: 94d0 acbd 5bc6 50be 6b6b dd3c 0403 7fbd
000001d0: 01a3 203b dc30 e9bd fd60 5c3e 6276 7d3c
000001e0: e8d9 2ebe c828 31be 48a7 61bc 55c8 823d
000001f0: f263 ab3b b7f7 003e 5b50 ca3d 81d7 83be
00000200: 909b c7bd 3d4a 23be adaa e13d 218f 2f3b
00000210: c8d3 62be 6ce0 d73d a20b 933e 7c2b bf3d
00000220: 7fc2 aebd 01ae a4bd fd09 56be 1b51 31bd
00000230: d2a1 b73d 61c2 543d 1925 d73d 245d 593e
00000240: fc11 13be 6b54 9cbc 84c1 4ebe 4f13 183e
00000250: 2353 88bd 2661 943c 2ab7 0d3d 06ef 5a3d
00000260: 4207 7c3e 205b 593e 280b 123e 9d73 62bd
00000270: 435d 573e 4eac 953d 86e0 f9bc b40f e03d
00000280: a171 4b3e 9ba0 293c 5d30 9e3d 62ca aeb9
00000290: 42a6 b53b 4579 0bbe b509 a13d 9f24 393c
000002a0: bcab f8bd 25ae 5f3d e9a7 f43b ef6a 2c3e
000002b0: b58c 0b3e 3dcc 0b3e 69b0 a7ba 1b4b 1a3c
000002c0: 5c2a 803e a782 763d b4bb 02be 6d91 083e
000002d0: b5ca 3dbd bd96 7dbb e117 2d3e 937e 2f3d
000002e0: f088 77bd e8fa 983d aa2e 9abd 5d69 e73d
000002f0: a8e0 303c 33b6 de3d 75a7 c23d 7a39 36be
00000300: 7b78 e43b a54c 77be e0ed b0bc 4fc2 fcbd
00000310: 0b8a e33d a51f b83d 7e78 6d3d 4f09 1a3e
00000320: b42e da3d 45b6 2abd 62c9 d43c 8e6e 273d
00000330: 3684 3ebd aa72 4f3e 5b32 473d 4666 e53b
00000340: 8027 9cbd fecc f33d b589 1abe 72b7 6c3d
00000350: 9ebf 423c f259 3a3e 4e67 c03c 547f 8ebd
00000360: 6a1f 3ebd 9449 ddbd 6baa 09bd 0aad d2bd
00000370: cdf4 89bc 28bc a5bd 09a8 f43a 3974 63bc
00000380: 9292 a2bd d551 afbd b8c7 553e 32f5 e43c
00000390: aa63 50be 5716 18bd d610 543e 7a8b 7a3d
000003a0: 0a7b 30be d714 2bbd 273e 7abd a748 c4bd
000003b0: 24c2 183e 71fd 353e d4e5 5dbe 0a96 8fbd
000003c0: 5dcb 81bd b5c5 35bd 0050 e43b f4cd 603e
000003d0: 74ab 90bd 158e cbbd 16a0 76bd 7127 54bd
000003e0: 6212 98bd 7008 113e 98f0 513e 3104 a03d
000003f0: f6ac 90bd 84e2 b43d d66a d23d c578 40bd

atom_encoder.atom_embedding_list.6.weight f4 [6, 200]
0.03774179 -0.07703151 -0.09383987 -0.08417923 0.03632527 0.097614855 -0.06997986 -0.04452609
-0.011731183 -0.12688296 -0.037149575 0.056133334 0.14864752 -0.16320746 -0.025926115 0.14226489
0.12575212 -0.08540343 -0.036742214 0.11255941 0.1055895 -0.044068616 -0.100862786 -0.039497238
0.03392638 -0.111079365 0.1435237 -0.054690707 -0.1027815 -0.10586039 -0.13921613 0.058550246
0.09763984 -0.0238633 0.053586904 0.05326446 -0.093520045 0.13847092 -0.061514433 -0.048904948
-0.047824156 0.073562264 0.022003446 -0.09509918 -0.08979842 -0.045677114 0.1315565 -0.13698469
0.049593374 0.10945598 0.09650037 -0.036306854 -0.09067156 0.13310418 -0.080950804 0.088328235
-0.095842786 0.059315313 -0.02193289 0.1514076 0.088263944 -0.034204025 -0.096371606 -0.087942295
-0.0458676 0.13070677 0.092474654 -0.09345297 -0.13561429 0.1387464 -0.15714096 -0.07738311
0.14664614 -0.1496768 -0.13945685 0.090860255 -0.04293096 0.15101631 0.10832935 0.14947225
0.09445796 -0.14863364 0.006253505 -0.05750288 0.15986249 0.16409181 -0.046914157 0.16826981
-0.055186875 0.093709536 -0.094172075 0.041010153 0.08209981 -0.09785364 -0.16057833 0.1602669
-0.04169587 0.12730382 -0.0048806216 -0.016798101 0.09342353 -0.13536659 -0.14131385 0.12212036
0.016076861 0.14123903 0.047895014 0.007304718 0.039346565 0.036203302 -0.07467075 -0.025092775
-0.12447745 -0.001407449 0.09068057 -0.09731761 0.0899837 0.09802545 0.10095052 -0.023013765
0.16079466 0.09292858 -0.15890494 0.0033150124 -0.1454965 0.12904635 0.022171473 0.1393205
0.16250366 0.09596707 -0.119821906 0.17062284 0.11611032 -0.16430157 -0.1695032 0.04797778
0.070001185 -0.14512113 -0.03660039 0.0065084654 -0.010620645 0.09573634 0.07185359 -0.05324546
0.07675104 -0.06777075 -0.15323853 -0.16486667 0.042395752 -0.09027089 -0.048967775 0.08110575
0.116778195 -0.0038522764 -0.05114114 0.12666148 0.12495183 0.033888314 0.054635633 0.026337648
-0.040831566 -0.042316284 -0.026322594 0.16589902 0.10475181 -0.082606785 -0.12509425 0.046988007
0.015098237 -0.047341313 0.020874841 0.06783021 -0.14485148 -0.08896335 -0.15530114 -0.024981204
-0.11817535 0.05679175 -0.03975999 0.078177206 0.16244633 -0.062182046 -0.10208573 -0.06403726
-0.049825344 0.026251813 -0.16619249 -0.106031574 -0.07143634 0.049802355 0.11364122 0.11192123
-0.11956783 0.1505 0.006878658 0.10779308 -0.15199652 -0.090799406 -0.1697007 -0.14416939
-0.15154693 -0.12077842 -0.0051477277 0.013303812 -0.0067184027 0.08357808 -0.081562445 0.112558894
-0.026315229 -0.050942414 0.13798231 0.03224578 0.012005858 0.07916927 0.09104074 -0.15306903
-0.13351163 -0.019652408 -0.009186707 -0.14074627 0.113299794 0.11567999 -0.05541492 -0.13707714
0.03552826 0.075994946 -0.11858202 0.11129848 0.008399875 0.13032034 -0.06443865 -0.1221243
-0.0019657493 0.03516277 -0.08774922 -0.06600659 0.008598236 -0.13953502 0.10276915 -0.12431742
-0.03728916 -0.071188375 0.024705207 -0.16215864 -0.0019594426 -0.14734662 -0.063644916 -0.019741375
-0.1292815 -0.0067932713 0.11825427 0.1700563 -0.04378023 -0.023528263 0.13772476 0.021987699
00000000: 2397 1a3d b2c2 9dbd 1e2f c0bd 2966 acbd
00000010: cec9 143d 4cea c73d 9a51 8fbd fd60 36bd
00000020: 2634 40bc 9bed 01be 272a 18bd 11ec 653d
00000030: 0e37 183e db1f 27be 0163 d4bc e3ad 113e
00000040: 2ac5 003e fee7 aebd 017f 16bd 8c85 e63d
00000050: 4f3f d83d 4b81 34bd 2691 cebd dbc7 21bd
00000060: 63f6 0a3d 947d e3bd e0f7 123e 5d03 60bd
00000070: 1b7f d2bd 55cd d8bd ac8e 0ebe 62d2 6f3d
00000080: 65f7 c73d f87c c3bc f17d 5b3d d62b 5a3d
00000090: 7087 bfbd 52cb 0d3e 8ff6 7bbd 8e50 48bd
000000a0: 43e3 43bd d0a7 963d 9240 b43c 5cc3 c2bd
000000b0: 3ce8 b7bd ed17 3bbd bfb6 063e b745 0cbe
000000c0: 6c22 4b3d 752a e03d fca1 c53d 7fb6 14bd
000000d0: 03b2 b9bd 764c 083e 89c9 a5bd 6fe5 b43d
000000e0: 3949 c4bd 9df4 723d 9bac b3bc 980a 1b3e
000000f0: bac3 b43d 8519 0cbd 7a5e c5bd 171b b4bd
00000100: aadf 3bbd ffd7 053e 5a63 bd3d 4564 bfbd
00000110: 79de 0abe 8913 0e3e 8fe9 20be 097b 9ebd
00000120: 682a 163e e044 19be c7cd 0ebe f114 ba3d
00000130: 60d8 2fbd 05a4 1a3e c7db dd3d 410f 193e
00000140: 2d73 c13d 6b33 18be 34ea cc3b 2488 6bbd
00000150: feb2 233e af07 283e 0f29 40bd ec4e 2c3e
00000160: a20b 62bd c9ea bf3d 4add c0bd 43fa 273d
00000170: f223 a83d 7d67 c8bd a56e 24be 021d 243e
00000180: 4ac9 2abd ef5b 023e 9fed 9fbb 2c9c 89bc
00000190: d654 bf3d 8a9d 0abe 94b4 10be 3d1a fa3d
000001a0: 9fb3 833c f7a0 103e 902d 443d 6a5c ef3b
000001b0: dd29 213d ea49 143d faec 98bd 5d8f cdbc
000001c0: 09ee febd 277a b8ba bcb6 b93d 754e c7bd
000001d0: 6049 b83d 91c1 c83d 25bf ce3d 5d87 bcbc
000001e0: 5ba7 243e 5751 be3d fab7 22be ae40 593b
000001f0: 09fd 14be ba24 043e f3a0 b53c 08aa 0e3e
00000200: 5c67 263e 628a c43d 3065 f5bd c1b7 2e3e
00000210: 3fcb ed3d ac3e 28be 3f92 2dbe 5984 443d
00000220: c85c 8f3d a29a 14be 4aea 15bd f744 d53b
00000230: 3702 2ebc 6a11 c43d fa27 933d e917 5abd
00000240: a62f 9d3d 64cb 8abd 90ea 1cbe cfd2 28be
00000250: 2ba7 2d3d f2df b8bd 6f92 48bd c51a a63d
00000260: 6829 ef3d 7976 7cbb 5f79 51bd 8cb3 013e
00000270: bfe6 ff3d 79ce 0a3d 9dc9 5f3d 0dc2 d73c
00000280: 003f 27bd d753 2dbd 7ba2 d7bc 6fe1 293e
00000290: 1e88 d63d bf2d a9bd b518 00be 7f76 403d
000002a0: 995e 773c f7e8 41bd b701 ab3c 91ea 8a3d
000002b0: f253 14be 6b32 b6bd 4307 1fbe 62a5 ccbc
000002c0: eb05 f2bd 779e 683d 5fdb 22bd 5f1b a03d
000002d0: 5558 263e 9ab2 7ebd 5312 d1bd f825 83bd
000002e0: a915 4cbd 0b0e d73c 5d2e 2abe 1527 d9bd
000002f0: 374d 92bd 8efd 4b3d babc e83d f536 e53d
00000300: fadf f4bd ac1c 1a3e 5e66 e13b 9ec2 dc3d
00000310: faa4 1bbe 0af5 b9bd 05c6 2dbe 24a1 13be
00000320: 1e2f 1bbe ad5a f7bd 45ae a8bb 3bf8 593c
00000330: 0c26 dcbb fc2a ab3d 360a a7bd 4785 e63d
00000340: 0993 d7bc fea8 50bd 3c4b 0d3e 2714 043d
00000350: 38b4 443c 8023 a23d 9173 ba3d 21be 1cbe
00000360: 46b7 08be 16fe a0bc d883 16bc ca1f 10be
00000370: b909 e83d a1e9 ec3d c1fa 62bd f35d 0cbe
00000380: 1586 113d 3da3 9b3d 21db f2bd 75f0 e33d
00000390: a19f 093c b272 053e 69f8 83bd 4e1c fabd
000003a0: cdd3 00bb d606 103d ddb5 b3bd 772e 87bd
000003b0: 9edf 0c3c 45e2 0ebe a278 d23d 229a febd
000003c0: 85bc 18bd 36cb 91bd 9362 ca3c ea0c 26be
000003d0: fe69 00bb 08e2 16be 4458 82bd aab8 a1bc
000003e0: 5f62 04be 179a debb 4b2f f23d 3d23 2e3e
000003f0: e652 33bd 58be c0bc b807 0d3e 8c1f b43c

atom_encoder.atom_embedding_list.7.weight f4 [2, 200]
0.26605418 -0.55244136 0.0066060484 0.17536585 -0.011978951 0.25748327 -0.044213858 0.0814829
-0.09798444 -0.33235073 -0.116974585 0.1037467 0.07992819 -0.3003324 -0.21598747 0.20721902
-0.02008632 0.051912107 -0.07389252 -0.015854344 -0.12833375 -0.05672099 0.32090798 0.38020965
-0.101865456 0.12933671 0.16221286 0.17477633 -0.06797857 -0.2029285 0.098502636 0.011815601
-0.5079878 0.05752938 -0.046634927 -0.26215196 0.16035886 0.053411983 -0.5321289 0.090107016
-0.13870214 -0.1364606 0.343304 0.41484046 0.1800136 -0.035985593 -0.19826679 -0.010837898
0.23255363 -0.20839354 0.123994455 0.13652846 0.033631817 -0.3338917 0.25362128 0.028981533
-0.15008476 0.113650665 0.012903664 0.03532862 -0.3617278 0.34939662 -0.14589657 0.12673652
0.020958763 -0.14794898 -0.027578468 0.057175133 0.0019927355 0.07420149 -0.44641447 0.16618438
0.051884785 0.36716482 0.28870055 0.24371204 0.1096326 0.770085 0.035248775 -0.06753271
-0.20263137 -0.17820908 -0.14578745 -0.088359565 -0.07807409 0.30515632 0.16422474 0.13953371
-0.42441404 -0.037275553 0.035017904 0.30009854 0.04202471 0.23816667 0.20239608 0.29081625
-0.0593097 0.002924375 -0.35645396 -0.08261038 0.3604754 0.31129336 0.069820285 0.25067174
-0.10918371 0.047205422 -0.013325671 -0.1007407 0.34347236 0.48648074 0.18240844 0.05334968
0.037938174 0.38747275 -0.023891153 0.14313656 0.11417998 0.31863898 0.10168539 0.28350514
0.10693789 0.053027906 0.17020918 0.038630456 -0.28894514 0.106911615 0.43778127 -0.00386046
0.18403012 -0.124774285 0.021053568 -0.2837875 -0.25722322 -0.10637059 0.062137984 -0.38444614
-0.19511414 0.20571114 0.112328835 0.23874176 0.197018 -0.056981985 -0.19160092 -0.10929503
0.33128357 -0.19708896 0.17728288 -0.55186015 0.17751442 -0.4651634 -0.22250703 -0.33891258
-0.26085058 0.26086286 -0.029150201 0.0320617 -0.054249775 -0.24276628 -0.09693715 -0.14575633
0.100984 0.24983227 0.09253619 -0.17181769 0.23868275 -0.25697106 -0.05505379 0.012523306
0.030469717 -0.2301375 -0.2560938 -0.39307138 0.15445112 -0.08281032 -0.025967767 -0.076068036
-0.32740203 0.026839813 -0.09923896 -0.30018792 0.32046664 0.1371828 0.23914409 -0.17687206
-0.5210744 -0.055987168 0.14291352 0.32042253 0.39041445 -0.14347836 0.04984947 -0.06745468
-0.178154 -0.37758762 0.21208014 -0.31732363 -0.15167674 0.1066125 -0.076993145 0.23551108
-0.38128653 0.54837716 0.020227604 -0.20053335 -0.038835876 -0.012666992 0.28886956 -0.047286976
0.26354715 -0.08206779 0.15793471 -0.041052256 0.072883174 0.44853088 0.17243505 -0.26423928
0.27429488 -0.02734037 0.20366888 -0.1780793 0.15936951 0.122364365 -0.18652591 -0.43554133
0.014845205 -0.16928747 -0.20077305 -0.033950765 0.09669326 0.38338682 -0.010510519 0.039701328
0.36604863 -0.19345374 -0.00113058 0.14992592 -0.17876403 -0.09422817 0.29367995 -0.033817165
-0.092625774 0.040273268 -0.3438094 -0.41078734 -0.008023188 0.16754758 0.14209513 -0.3435281
-0.18654698 -0.02535028 -0.16623154 0.09689147 -0.10726067 0.45692623 -0.331486 0.024337877
00000000: 4138 883e cc6c 0dbf 8d77 d83b 1b93 333e
00000010: 5d43 44bc d9d4 833e 9719 35bd 82e0 a63d
00000020: 11ac c8bd e029 aabe 5f90 efbd 2679 d43d
00000030: 64b1 a33d 2bc5 99be d22b 5dbe 3931 543e
00000040: 118c a4bc caa1 543d f654 97bd f8e0 81bc
00000050: ec69 03be 4554 68bd 0d4e a43e d7aa c23e
00000060: d69e d0bd d870 043e 211b 263e 91f8 323e
00000070: 5938 8bbd 7dcc 4fbe c0bb c93d 3996 413c
00000080: 7d0b 02bf eda3 6b3d 4404 3fbd c838 86be
00000090: 1d35 243e 86c6 5a3d 9939 08bf 078a b83d
000000a0: ef07 0ebe 54bc 0bbe 8bc5 af3e f865 d43e
000000b0: 7c55 383e a165 13bd 7306 4bbe 7091 31bc
000000c0: 8a22 6e3e 1e65 55be cef0 fd3d 1ece 0b3e
000000d0: 84c1 093d daf3 aabe a6da 813e ae6a ed3c
000000e0: d2af 19be aec1 e83d e469 533c beb4 103d
000000f0: 6334 b9be 1de4 b23e e965 15be 38c7 013e
00000100: b6b1 ab3c f07f 17be 3dec e1bc 7930 6a3d
00000110: 8e98 023b f3f6 973d 7090 e4be 3d2c 2a3e
00000120: 2485 543d 07fd bb3e 8fd0 933e a68f 793e
00000130: 0e87 e03d 4a24 453f 0561 103d 974e 8abd
00000140: 997e 4fbe 717c 36be 4e49 15be dcf5 b4bd
00000150: 4fe5 9fbd 733d 9c3e 882a 283e ede1 0e3e
00000160: cc4c d9be 40ae 18bd ef6e 0f3d 84a6 993e
00000170: 1a22 2c3d f7e1 733e eb40 4f3e dee5 943e
00000180: baee 72bd dfa6 3f3b 2281 b6be a22f a9bd
00000190: 3b90 b83e d861 9f3e f0fd 8e3d 0c58 803e
000001a0: b59b dfbd 795a 413d ea53 5abc 2451 cebd
000001b0: 9cdb af3e 0114 f93e 47c9 3a3e 3285 5a3d
000001c0: 0f65 1b3d d462 c63e 61b7 c3bc 6492 123e
000001d0: 31d7 e93d a624 a33e 6e40 d03d 9627 913e
000001e0: 4102 db3d ca33 593d 514b 2e3e f83a 1e3d
000001f0: 9ef0 93be 7af4 da3d de24 e03e c5ff 7cbb
00000200: 6472 3c3e a989 ffbd 8878 ac3c 984c 91be
00000210: c3b2 83be d3d8 d9bd 6684 7e3d 20d6 c4be
00000220: 00cc 47be f1a5 523e a90c e63d b878 743e
00000230: 16bf 493e f165 69bd 0833 44be 13d6 dfbd
00000240: 009e a93e b0d1 49be a589 353e b546 0dbf
00000250: 57c6 353e e629 eebe e2d8 63be f385 adbe
00000260: 358e 85be d18f 853e 67cc eebc 2153 033d
00000270: 0335 5ebd b997 78be fc86 c6bd 2641 15be
00000280: b3d0 ce3d 08d4 7f3e 9d83 bd3d faf0 2fbe
00000290: 4069 743e b691 83be 1580 61bd 8d2e 4d3c
000002a0: a19b f93c 2aa9 6bbe ba1e 83be a740 c9be
000002b0: 6f28 1e3e 7598 a9bd 5bba d4bc 8fc9 9bbd
000002c0: 3da1 a7be 2bdf db3c cc3d cbbd 3bb2 99be
000002d0: 3414 a43e a679 0c3e 30e2 743e f31d 35be
000002e0: 2265 05bf cd52 65bd ec57 123e 6c0e a43e
000002f0: 67e4 c73e feeb 12be f52e 4c3d ae25 8abd
00000300: 016e 36be 2a53 c1be 892b 593e 3e78 a2be
00000310: 2651 1bbe a857 da3d 95ae 9dbd d129 713e
00000320: fd37 c3be 7262 0c3f 5cb4 a53c 9d58 4dbe
00000330: 5e12 1fbd 3789 4fbc b6e6 933e fdaf 41bd
00000340: a7ef 863e 2813 a8bd a3b9 213e 6926 28bd
00000350: c643 953d d7a5 e53e d092 303e 5f4a 87be
00000360: 6170 8c3e e9f8 dfbc 938e 503e 6c5a 36be
00000370: c331 233e 2b9a fa3d a600 3fbe 46ff debe
00000380: 4d39 733c b259 2dbe 7397 4dbe f50f 0bbd
00000390: 1e07 c63d 474b c43e 5034 2cbc dc9d 223d
000003a0: ba6a bb3e bd18 46be f82f 94ba 2e86 193e
000003b0: eb0d 37be b3fa c0bd 385d 963e de83 0abd
000003c0: 95b2 bdbd 95f5 243d c907 b0be b852 d2be
000003d0: b173 03bc 9891 2b3e 6381 113e eae2 afbe
000003e0: 2c06 3fbe 64ab cfbc 9a38 2abe 096f c63d
000003f0: 7bab dbbd 3cf2 e93e 88b8 a9be 3a60 c73c
